data.pth (torch, 8490 bytes, 6 tensors)

l1.weight f4 [8, 117]
000000 75 42 45 3d 60 52 0c 3f 2d 67 40 be 5b 43 30 3f
       0.04815908 0.54813194 -0.18789358 0.68852776
000010 57 da e0 be d1 53 0b be 61 c1 08 be 3d 35 68 be
       -0.4391658 -0.13606192 -0.13355018 -0.22676559
000020 f7 0a 16 3f 51 16 72 3e 53 d0 21 bf 34 24 0f 3f
       0.5861048 0.23641326 -0.632085 0.55914617
000030 84 b6 a3 be 79 ed b7 be b2 c6 78 be 03 e1 20 bf
       -0.31975186 -0.35923365 -0.24294546 -0.6284334
000040 7d 42 d3 3e 98 6c 3a bf 94 af 03 3f 6e b5 98 3e
       0.41261664 -0.7282195 0.51439786 0.2982592
000050 fb 51 ff be 44 97 8a be 2b 4f b6 3e 6d e6 10 be
       -0.49867234 -0.27068532 0.35607275 -0.141504
000060 0f 17 a8 bd ce 00 30 bf 47 8d 20 bf e8 d5 3e be
       -0.08207523 -0.6875123 -0.6271557 -0.18636286
000070 57 d9 87 3e 20 b0 1c bf 59 74 91 3e d7 c4 8f be
       0.26533005 -0.61206245 0.2840908 -0.28079864
000080 c0 47 1e bf 1a b7 5f be 67 a9 91 be bc ff 09 be
       -0.6182823 -0.21847191 -0.28449556 -0.13476461
000090 09 3c 38 bf f3 83 18 bf 1e da 9c be 32 c2 c1 3e
       -0.71966606 -0.5957634 -0.3063516 0.37843472
0000a0 76 9b 06 bf 0d ca 44 3f 82 a4 3d 3e 3f 7f 45 3f
       -0.52580965 0.76870805 0.18519786 0.7714729
0000b0 22 b7 47 3f ec 0f ec be bd 7d a3 be af 83 d7 3e
       0.78013813 -0.46105897 -0.31931868 0.42092654
0000c0 f5 4e 2d be 9e b3 ef be 86 44 ce 3d 20 42 31 3f
       -0.16924651 -0.46816725 0.100716636 0.69241524
0000d0 b7 b8 58 bd 90 3e 5d be 93 a2 74 be 3f 24 10 be
       -0.052910533 -0.21605897 -0.23890142 -0.14076327
0000e0 f3 53 72 3d 2a 50 13 bd 5c 82 5b bf 28 cd 3d bf
       0.05916209 -0.035965122 -0.8574579 -0.7414117
0000f0 37 73 a0 3e ec 4f 0f be 4d 76 c7 3d 86 e7 1b 3f
       0.31337902 -0.13995332 0.09739361 0.6090015
000100 49 81 79 3d 9e e9 6d 3e 89 82 08 3f 2f 52 d6 be
       0.06091431 0.23233649 0.5332418 -0.41859576
000110 b9 cc 3c 3f e4 0a ea bd 1a 9e 0f bd 80 22 91 3e
       0.7374988 -0.114278585 -0.035062887 0.28346634
000120 6a b6 b5 3e 6f e1 1e bf 86 4a d9 be 49 80 40 3f
       0.35490733 -0.62062734 -0.4243967 0.7519575
000130 aa fb 1a bf 8b 22 a2 bd 53 25 d7 3e 40 91 1b bb
       -0.6054026 -0.07916745 0.42020664 -0.0023737699
000140 91 e6 08 be e3 ef 27 be 81 84 94 be ce 64 06 bf
       -0.13369204 -0.16400103 -0.29007342 -0.52497566
000150 ea cd f8 3e 1a c8 2e be a2 35 96 be d2 c1 5d be
       0.485946 -0.1706852 -0.29337794 -0.21655968
000160 3a 7c 0c be e4 4f 54 3f c6 80 cf be 4f a4 31 3e
       -0.13719264 0.82934403 -0.40527934 0.17347835
000170 ff 1d fc bd 01 0f d2 be 01 73 d1 bd 72 95 2f bf
       -0.12310409 -0.41027072 -0.102270134 -0.6858741
000180 e8 49 9a 3e b0 4c 46 be d7 76 3b 3e 6c a5 0c 3d
       0.3013451 -0.19365191 0.18307053 0.034337446
000190 ef 10 d3 3e ec bf fa 3d d7 1d d4 3e 44 3d 3e 3f
       0.41223857 0.122436374 0.41429016 0.74312234
0001a0 38 e5 35 bd e2 64 84 be 72 30 1b bf 49 ce f7 3d
       -0.044408053 -0.25858217 -0.60620797 0.12099893
0001b0 17 a5 7c be d7 0f 84 be f9 14 08 3f b2 44 22 3f
       -0.24672352 -0.25793335 0.53157 0.6338607
0001c0 f2 43 de be 46 78 81 be 9c 93 91 3e b6 29 c1 be
       -0.43411213 -0.25287074 0.2843293 -0.37727135
0001d0 cf 51 95 be 52 97 ed bd e7 5a 31 3e 25 18 94 3d
       -0.29163978 -0.11601128 0.17319833 0.07231168
0001e0 0b 0a f9 be d7 41 22 bf 87 44 81 3e 15 3b 3d be
       -0.48640475 -0.63381714 0.25247595 -0.1847957
0001f0 02 0e a3 3e da bf 0d bf 47 a0 a2 bd f5 fe c7 3e
       0.31846625 -0.5537087 -0.07940727 0.39061704
000200 6b c5 d3 3e 1f b9 82 be 2b ad d4 3e f1 b1 5a 3e
       0.41361555 -0.2553186 0.41538367 0.21356942
000210 4c 9d da 3e 30 c8 62 be 90 1b b6 bc d7 db cf bd
       0.42698133 -0.22146678 -0.02222994 -0.10149353
000220 21 a1 62 be b1 1b ae bd 3f 12 e0 3d e7 e3 2f be
       -0.22131778 -0.085013755 0.1094098 -0.17176782
000230 c9 03 33 be 96 44 ef be 81 a9 e6 be 46 51 f3 be
       -0.17481913 -0.46732014 -0.45051196 -0.47522944
000240 52 a2 d6 bd 84 2f f8 3e c4 85 37 bd b4 fb d7 3e
       -0.10480179 0.48473752 -0.044805303 0.42184222
000250 cd 84 0e 3f fb a3 5d 3e d2 0f 11 bf 0d a5 20 be
       0.5567139 0.21644585 -0.56664765 -0.15687962
000260 04 e1 9e bc 1c d8 1d bf 01 f7 3c 3e 7d be 82 be
       -0.019394405 -0.6165788 0.184536 -0.25535956
000270 6a 84 aa 3d 14 9b f0 3e 7d 47 4c be d4 ae 68 be
       0.08326037 0.46993315 -0.19949146 -0.22722942
000280 c9 ce 4e be c7 8a b0 bd 9c 6e 49 be b4 cf a5 3e
       -0.2019607 -0.0862022 -0.196711 0.32385027
000290 e7 c4 d1 3d 8b 6e 78 3c cf 41 ff 3e 76 11 48 3e
       0.10242634 0.015163074 0.49854895 0.19537911
0002a0 fe 74 46 3f 83 60 c3 be b3 fa 03 3f 3d 70 cf be
       0.77522266 -0.3815957 0.5155441 -0.4051532
0002b0 bd 10 14 be 16 4d 2f be 60 09 1c be db 71 a7 be
       -0.1445951 -0.1711925 -0.15237951 -0.32704052
0002c0 3d af 53 bd 24 4c 3f be 12 50 58 be 72 8a 65 be
       -0.051680792 -0.18681389 -0.21124294 -0.22416094
0002d0 ce 8c 94 be 45 ff eb bd 62 18 d8 3e 28 98 e4 be
       -0.29013675 -0.11523298 0.42206103 -0.44647336
0002e0 ba d2 b9 3e 5b 3f 22 3f b8 ed f9 3d 81 13 e1 3e
       0.36293584 0.6337792 0.122035444 0.43960193
0002f0 7c 3c 01 3f 52 d7 16 be 67 a5 dc bd 76 1e d2 3e
       0.50482917 -0.14730576 -0.107737355 0.41038865
000300 3f 6e 83 3f 98 1c f7 3e bc 8a 72 be 00 16 e5 be
       1.026802 0.48264003 -0.23685735 -0.44743347
000310 5c 42 4d be 8b 20 87 3e 59 7b 9b bb 77 ef 3e be
       -0.20044845 0.26392016 -0.004744929 -0.18646036
000320 0f fd 2c 3e df 1b b8 3e fc 03 01 bd 67 ac 3e 3e
       0.16893409 0.35958764 -0.03149794 0.18620454
000330 4e ad 10 ba a1 6e 14 be ef 2f 3b 3f 15 2c 54 be
       -0.00055189885 -0.14495327 0.73120016 -0.20719941
000340 43 23 e6 3c b6 73 d8 bd 80 7b 00 3f 36 97 ef bd
       0.028092986 -0.10568945 0.50188446 -0.11698763
000350 37 e4 ab be 9d 81 82 be fb 71 71 be 11 04 97 be
       -0.33572552 -0.25489512 -0.23578636 -0.2949529
000360 6c 8c 9a bb 00 c2 a0 be b8 c8 4b be e5 4a ed 3e
       -0.0047164466 -0.3139801 -0.19900787 0.46346202
000370 d5 87 dd 3e eb 86 41 be 93 2f a3 bb a5 c6 0f bf
       0.43267694 -0.18899123 -0.0049800365 -0.5616248
000380 f3 b0 3a 3f b8 42 02 3e eb 05 e1 3d 82 a2 e5 3e
       0.72926253 0.12720764 0.10987457 0.44850546
000390 15 25 cd 3e f7 38 42 bd e8 72 a1 3e a0 1c 19 3d
       0.40067354 -0.047417607 0.3153298 0.037380815
0003a0 3d c7 0b bf b6 5a af 3d c8 4b bd be 45 58 2a 3e
       -0.5460089 0.085622236 -0.3697188 0.16635235
0003b0 14 a6 ae 3c 84 e8 ec be bc 13 16 bf 00 bc 4b 3e
       0.021319427 -0.46271145 -0.5862386 0.19895935
0003c0 1b 16 4f bd dc 89 83 bd df 38 34 3f 2d 8b 98 3d
       -0.05055819 -0.06422779 0.7039928 0.07448421
0003d0 c0 ee ea be 1c 62 fb 3e b4 1c 34 bf f2 97 1e be
       -0.45885277 0.4909829 -0.703563 -0.1548765
0003e0 9e 14 9b be 6d b0 55 3f 5d 7d b8 be de f3 28 bf
       -0.30289167 0.8347233 -0.36033145 -0.6599711
0003f0 a3 8e f5 be 1d 3b b5 3e 91 7e 12 bf a5 0b 0e 3f
       -0.47960386 0.35396662 -0.57224375 0.5548652

l1.bias f4 [8]
000000 78 2f 18 3f 34 bb 82 3e 87 23 34 3f 17 cb 32 3f
       0.5944743 0.2553345 0.7036671 0.6984114
000010 f4 82 af 3e ee 22 6e 3f 77 fc 83 3e a3 e1 3f 3f
       0.34279597 0.9302205 0.25778553 0.7495367

l2.weight f4 [8, 8]
000000 51 a0 36 bf fa 9b aa be 8e 76 f2 bd 1b 29 4e bf
       -0.71338373 -0.33322126 -0.11839019 -0.8053147
000010 f3 e4 99 3f a5 3e a0 3f 1d 75 c4 3f b5 96 8e be
       1.2022995 1.2519118 1.534824 -0.27849355
000020 43 6d 46 3e 39 a2 1f bf c2 82 a7 bf 3d b8 93 3f
       0.19377618 -0.6235691 -1.3086779 1.15406
000030 e2 99 23 3f 89 df dc 3c 98 ee 82 bf c7 84 3b 3f
       0.6390668 0.026962059 -1.0229063 0.7324948
000040 84 ca 6f bf 59 42 8c 3f c4 15 3b 3f 8e 21 79 3f
       -0.9366839 1.0957748 0.73080087 0.97316825
000050 4e 6b 66 bf 9e 89 4e bf 89 f2 6a bf a0 f3 bd 3f
       -0.90007484 -0.8067874 -0.9177633 1.4839973
000060 6f ac e6 3f 04 0c 53 3f 4c d1 e6 3f 1f 81 99 3f
       1.8021373 0.8244021 1.8032622 1.199253
000070 fb 2b 8e 3f 63 0f 6c 3e 46 33 69 bf a0 04 38 bf
       1.1107172 0.23052745 -0.9109386 -0.7188206
000080 23 93 96 3f 21 29 8b bf 49 71 59 bd 09 78 bc 3f
       1.1763653 -1.0871927 -0.053086553 1.4724132
000090 1e db 71 bf c8 11 30 3f a7 c5 c9 3e 8a 42 5b bf
       -0.9447497 0.6877713 0.3940861 -0.85648406
0000a0 64 b2 e7 3e ef a8 04 3f 74 ea f0 be 15 da c9 be
       0.4525329 0.5182027 -0.47053874 -0.39424196
0000b0 01 a6 ab 3f e4 34 79 bf a3 f1 92 3f 61 11 33 3f
       1.3410035 -0.9734633 1.1479992 0.69948393
0000c0 85 d9 90 be 28 74 9a bf ed 61 4b 3f 42 fe 37 bf
       -0.28290954 -1.2066698 0.794463 -0.7187234
0000d0 8b 0c 4b bf 56 6b e4 3f ad 77 d8 3c a1 96 a4 3f
       -0.79316014 1.7845256 0.026424253 1.2858468
0000e0 17 e8 e5 3e 2b 8c 95 3f b0 e8 43 3f c3 6a 39 3f
       0.44903633 1.1683401 0.7652693 0.7242853
0000f0 45 73 35 3f 2b 5f 03 3f 3e 72 96 3f 1f e0 4f bf
       0.7087901 0.5131709 1.1753614 -0.81201357

l2.bias f4 [8]
000000 fd a7 98 bd 6b fd 7f 3e f2 87 09 3e 17 d6 de bc
       -0.07453916 0.24999015 0.13430765 -0.027201695
000010 48 f3 80 3f 33 88 f7 3e 02 38 6c 3f 99 b1 21 bf
       1.0074244 0.483461 0.9227296 -0.6316162

l3.weight f4 [14, 8]
000000 90 16 6c bf 03 60 fe bf 0c 3a 38 3f 55 58 c1 3d
       -0.9222193 -1.987305 0.7196357 0.09440676
000010 35 30 86 bf d1 af ed bf 3d c3 44 3c 77 54 ea be
       -1.0483462 -1.856928 0.012009439 -0.45767567
000020 8f 90 02 3f 6a e4 08 c0 c6 d8 81 bf 60 85 82 3e
       0.5100183 -2.1389413 -1.0144279 0.25492382
000030 5e 4f db bf 55 73 ab bf 7f f2 85 3e 89 cc f3 bc
       -1.7133596 -1.3394572 0.26161572 -0.029760616
000040 a6 06 e8 3e e5 2d e3 bf 33 ab 8e bf 85 35 c4 bf
       0.45317572 -1.7748381 -1.1145996 -1.5328833
000050 09 02 54 3f 61 71 33 bf 17 04 2a bd 4f 2b 53 3e
       0.82815605 -0.7009488 -0.041507807 0.2062199
000060 25 20 09 c0 00 2e 9e 3f 43 e9 1f be f1 f3 70 bf
       -2.142587 1.2357788 -0.15616326 -0.94122225
000070 7f 64 73 3f 86 c7 e2 bf a7 3c 3d 3f 3f fe 13 c0
       0.9507522 -1.771714 0.73920673 -2.312393
000080 f7 69 b5 bf 92 3e d7 bf b8 ca 87 bf bf 51 0c 3f
       -1.4172963 -1.681597 -1.060874 0.54812235
000090 a5 9b 4f 3f a5 4a 77 bf 1f 34 c6 3e 62 17 3b bf
       0.8109687 -0.96598274 0.3871164 -0.73082554
0000a0 8f ed 30 3f e6 7a e1 bf 71 88 5e bf 1a 99 5b bf
       0.69112486 -1.7615631 -0.86926943 -0.8578049
0000b0 04 a8 90 bf b6 88 48 3f bb 6e a0 bf cd 7f a6 3d
       -1.1301274 0.78333604 -1.2533792 0.08129845
0000c0 cb 94 ad bf cb 8d c5 bf 3d ab 09 be 57 1f 0b 3f
       -1.3561033 -1.5433897 -0.13444228 0.54344696
0000d0 41 11 b9 bf 85 59 10 bc d5 b9 d5 bf 68 37 c2 3e
       -1.445839 -0.008810406 -1.6697336 0.37932897
0000e0 ec 21 0e 3f 51 fb 68 3e 0a fc c0 bf 97 f4 d9 bf
       0.5552051 0.2275212 -1.5076916 -1.7027768
0000f0 f6 3a 1a bf 67 26 b0 bf 0b b4 86 3f 42 b6 d0 bf
       -0.6024622 -1.376172 1.0523695 -1.6305621
000100 3e 20 1a bf 00 0f 90 bf 16 c9 24 3f f5 15 03 c0
       -0.6020545 -1.1254578 0.6436933 -2.0482152
000110 76 4c 9e bf 2b 4f 23 bb 03 cb 2a 3f 14 5a 14 bf
       -1.2367084 -0.0024919014 0.6671602 -0.5794995
000120 1a 54 04 3f e2 c2 d8 bf 23 50 92 bf 61 c1 12 3e
       0.5169083 -1.6934474 -1.1430706 0.1433158
000130 91 ff e6 be 0c b7 77 bf 06 2e af bf 9f 47 3b 3f
       -0.45116857 -0.9676368 -1.368592 0.7315616
000140 34 01 a3 bf 1c 58 b6 bf 1e 72 00 bf d0 8f 48 3f
       -1.2734742 -1.4245639 -0.5017413 0.7834444
000150 e2 20 3f 3e 90 59 0c c0 59 c8 0a c0 4e 61 1f 3e
       0.18664888 -2.1929665 -2.1684783 0.15564463
000160 9d 7d 27 bf 7a 8e 93 3f f7 eb 51 3f ed f0 27 3b
       -0.65426046 1.1527855 0.8200068 0.002562578
000170 73 b4 96 bf 0e 22 9b be 3d 7b ec bf 8b 9a 0c bf
       -1.1773819 -0.3029942 -1.8475109 -0.54923314
000180 15 87 ca be fa 44 a6 3f bd c2 10 c0 fd 5e d8 3e
       -0.39556184 1.29898 -2.261886 0.4225997
000190 f2 6a 87 3f 01 70 ec bf dd 0a bb bf b7 f2 30 bf
       1.0579512 -1.8471681 -1.461269 -0.69120353
0001a0 40 78 ae bd 1a de 70 3f 81 c4 cb bf c7 53 98 3e
       -0.085190296 0.940889 -1.5919343 0.29751417
0001b0 a8 05 c8 bf ec c8 b9 3e 84 13 08 3e 22 c7 e6 bf
       -1.5626726 0.36286104 0.13288695 -1.802952

l3.bias f4 [14]
000000 41 5e f1 3d 2a e1 86 be 44 15 c9 be 1b 98 e4 3e
       0.11785556 -0.26343662 -0.39274037 0.44647297
000010 1b 2f 9d 3e 96 73 bc 3c 82 ab 31 3d d0 2c ec 3e
       0.307 0.023004334 0.043376453 0.4612794
000020 91 a9 85 be b6 8c 1b be c9 e5 09 3c e0 cd 91 3d
       -0.2610593 -0.15190396 0.008416601 0.07119346
000030 74 7a 2d 3e 3f 7c eb 3e
       0.16941243 0.4599323
