data.pth (torch, 8490 bytes, 6 tensors)

l1.weight f4 [8, 117]
00000000: eb54 a9be a977 08be c968 613f 21d7 c0be
00000010: c825 ab3e 6664 573f 9340 a7be 68fe 2f3f
00000020: 8f7b 0b3e c12b 073f 8e14 4e3f c5b0 4f3f
00000030: d380 2dbf f6bc ec3e 4b5b cd3e 1349 633f
00000040: 4fb7 2b3e effc 90be cb31 d1be 5b22 c53e
00000050: 721d 4fbf 1c6d 933f b4b1 bd3d 336a a93e
00000060: 6f77 21be 4ea5 19bf c1c9 26bf acdf a43e
00000070: 1f34 253f dfa6 06bf f6e5 d5bb b6e9 033f
00000080: 584e 543f 54ec a33e 676b a23e 2c17 223f
00000090: 96c5 0abf e824 0b3f f480 31bf 3f33 663f
000000a0: c52f 693f f678 253f c976 6dbc 1557 f53e
000000b0: aafd 103f 972b 45bf 79ec 14bf ba36 313f
000000c0: 2720 953e 435b 1a3f 9672 583f 8020 0cbf
000000d0: c35b 553f 25bd 643e 3a7f 233f f4f2 debe
000000e0: 7004 373f a027 b3be 3e82 7c3f befd 0ebf
000000f0: de67 d1bd ac20 8b3e fb23 263f af1a cabe
00000100: 9efa 773f 41c8 8c3d 2145 3abe 3a8b fc3e
00000110: 622e 0b3f 3fe9 273f 0f65 1a3e 4c14 1b3d
00000120: 2927 a2be 92ca 46bf 324f fc3e a168 2a3f
00000130: 3c61 4a3f 7b87 00bf c010 63bd 5426 06bf
00000140: ee2c 513f 71a2 9f3e 6c5f a23e da0a 3b3f
00000150: 9768 423f 858a c43e 51cf 0b3f 2f26 bb3e
00000160: b6e1 f6be 4e41 e2be 5750 323f 2840 e13e
00000170: 3671 953c d175 0a3f 096c 353f 68fe 22bf
00000180: 7793 ec3e 6235 fa3d 8fcd e3be d8e8 3a3f
00000190: 7a1b afbe bae3 753c 6dc7 ef3e e8f6 593e
000001a0: 3cc6 b2be ca93 9a3e 5b82 053f b49a cb3e
000001b0: 6475 39bf 1fe7 d63e ef0b c2be 0340 573f
000001c0: 8524 303b 0aed 23bf 0418 003f 5c57 c0bd
000001d0: 6299 cb3e 3e0b 10be bf2c d5bd 8227 973e
000001e0: 8b58 8b3f 7108 dbbe dc8f cfbe 37d3 353e
000001f0: 9c8d 0b3f 3503 163f 5357 833e 0a33 353f
00000200: 365b 063f 6e13 bebe 0351 9f3e bd34 8d3d
00000210: 9efe a0be 69ab 633f d2e0 1cbe b44e 5f3f
00000220: dd2c 5c3e b126 8fbd 1dbd 03bf 1780 5d3f
00000230: 2d62 243f 7959 ef3e 3540 c5be a41c 1abf
00000240: d771 ea3e ac3c 2c3e 958f 26bf 8d50 29bf
00000250: e2cb 393f 4c6b 40bf c737 b0be cb3e 1f3f
00000260: d470 8e3e b6d9 0dbf 9c0c 343f fdc7 c6be
00000270: 4857 093f 7096 303f aa2a 0b3f 40cb dcbc
00000280: 6225 0f3f f80c 1d3f e0fe e9be b8b8 543d
00000290: 34a0 1f3f 5217 b03d 7520 573e 072c 0e3f
000002a0: 31e1 69bf e10b a23c 2970 d23d f6bd 33be
000002b0: f82a 8cbe 4751 95bd 5477 bbbd 231c 5ebf
000002c0: 2972 0cbf d658 35bd 07bf 253f 84fa 7a3b
000002d0: 8438 6e3f ba58 973e 4eb8 76be 922f 413f
000002e0: ba86 5a3e 4713 c73e ea47 573e 8c39 9ebd
000002f0: fe21 35be 70d7 543f d337 e0bd 1e85 3a3e
00000300: 4240 ddbd 61ba 153f e458 133f 6c92 393f
00000310: 015a 1c3f 7ccf e6be 60f4 84bd f882 1e3f
00000320: a4ab 05bf 42b2 f03e 60ab 143f 5f6d 673f
00000330: 0015 b639 8c85 28be 4884 05bf 7bbc 13bd
00000340: 1d5b 183e 16bf c1bd 83c9 2f3f 0a12 093e
00000350: e579 a3be a428 723e b5d4 263f e6d0 f63d
00000360: 05aa c43e ab9f a0be 9ebe c8bd 9cb7 513e
00000370: b1b0 d83c fd05 573e ff10 3abd b6d0 153d
00000380: a1d0 cabe 3f07 f2bd 653a aebe 9701 20bf
00000390: 22c5 ff3e d84d 9f3e 849e 52bd e4be 813e
000003a0: 57d2 e3be 001a f4b9 43c6 47bd 77ce fa3e
000003b0: 0480 f4be 94d2 9f3e eb81 15bf ed78 03bf
000003c0: 3b97 ee3e ba0a afbe 1002 bdbc 9b50 033f
000003d0: ff7f 5dbf 8fb1 2ebe 6c1a afbe 4fef 26be
000003e0: 66d2 223c 892b 8b3d 6880 d53e 37b4 f3be
000003f0: ccae 78be 6fad 6c3e 2580 3c3f 950f 20bf
-0.330726 -0.13326897 0.88050514 -0.3766413 0.33427262 0.8413757 -0.32666454 0.6874757
0.13621353 0.5280114 0.80500114 0.81129104 -0.67774695 0.46237916 0.40108714 0.8878338
0.16769145 -0.28317973 -0.40858302 0.38502774 -0.80904305 1.1517673 0.0926241 0.33088836
-0.15768217 -0.6001786 -0.651516 0.32201898 0.64532655 -0.52598375 -0.0065276576 0.5152849
0.82932043 0.32016242 0.31722566 0.6331661 -0.5420774 0.5435319 -0.6933739 0.89921945
0.91088516 0.64637697 -0.014493653 0.47918 0.5663706 -0.7701964 -0.5817333 0.6922413
0.29126093 0.60295504 0.84549844 -0.5473709 0.8334314 0.22337778 0.6386601 -0.43544734
0.71491146 -0.3499117 0.98636234 -0.5585593 -0.10224889 0.27173364 0.6489865 -0.39473483
0.96866786 0.06874133 -0.18190433 0.4932497 0.5436765 0.6559028 0.15077613 0.037861153
-0.31670502 -0.7765285 0.4927917 0.665659 0.7905462 -0.50206727 -0.055435896 -0.52402234
0.8170918 0.3117862 0.31713426 0.73063433 0.7594084 0.38386932 0.54613215 0.3655257
-0.4821908 -0.4419045 0.6965384 0.4399426 0.01824246 0.54086024 0.70867974 -0.63669443
0.46206257 0.12217213 -0.44492766 0.7301154 -0.3420065 0.0150079075 0.46831837 0.21285594
-0.34916866 0.3019088 0.5215203 0.39766467 -0.7244475 0.41973206 -0.3789973 0.8408205
0.0026877236 -0.6403357 0.50036645 -0.093916625 0.3976546 -0.14066789 -0.10408925 0.2952233
1.0886396 -0.42779878 -0.40539443 0.17756353 0.54512954 0.58598644 0.2565256 0.70781004
0.52482927 -0.371242 0.31116495 0.06894825 -0.31444257 0.88933426 -0.15320137 0.87229466
0.21501489 -0.06989802 -0.5146044 0.86523575 0.64212304 0.4674795 -0.3852555 -0.6019995
0.45789978 0.1682002 -0.6506284 -0.66138536 0.72576725 -0.7516372 -0.34417555 0.6220519
0.27820456 -0.55410326 0.7033174 -0.38824454 0.53648806 0.6897955 0.54361975 -0.026952386
0.55916417 0.61347914 -0.45702267 0.051933974 0.62353826 0.08598198 0.21008475 0.5553593
-0.9135924 0.019781055 0.10275299 -0.17552933 -0.27376533 -0.07290893 -0.091536194 -0.86761683
-0.54861695 -0.044274174 0.6474461 0.0038296292 0.93054986 0.2955988 -0.24093744 0.7546321
0.21340457 0.38881895 0.21023527 -0.0772582 -0.17688748 0.8314123 -0.109481476 0.18214843
-0.10803272 0.58487517 0.5755751 0.7248905 0.61074835 -0.45080173 -0.06491923 0.6191859
-0.5221503 0.47011 0.58074 0.9040126 0.0003472939 -0.16457194 -0.5215497 -0.03606842
0.14878507 -0.09460275 0.6866686 0.13385788 -0.31928936 0.23648316 0.65168315 0.12051563
0.38410965 -0.31371817 -0.09801982 0.20480198 0.02645144 0.20998378 -0.045426365 0.036575995
-0.39612296 -0.11817788 -0.34028926 -0.62502426 0.49955088 0.31114078 -0.051420704 0.2534095
-0.44496414 -0.00046558678 -0.04877306 0.48985645 -0.47753918 0.31215346 -0.58401364 -0.51356393
0.46599755 -0.3418787 -0.023072273 0.5129487 -0.8652343 -0.1705992 -0.34199846 -0.16302226
0.009937858 0.06795413 0.4169953 -0.4759843 -0.2428543 0.23113035 0.73633033 -0.62523776

l1.bias f4 [8]
00000000: b220 403f 3193 363f 5b06 3d3f 33f6 043f
00000010: ac12 293f f88b 8d3f c0be 9e3e 0514 0e3f
0.7504989 0.71318346 0.7383782 0.5193817 0.66044116 1.105834 0.31004906 0.554993

l2.weight f4 [8, 8]
00000000: 6c01 ccbd 9a55 d3bf 882f 77bc 21dc 9cbe
00000010: 223c 023e ec7e b53f 0151 c43f 964f eabf
00000020: 8265 a3be 5434 f9be af82 6b3d c295 6f3f
00000030: 7ad4 153d 5b6f 103f c4dd 753f eb26 5d3f
00000040: b755 703e 1908 64be 4664 363f 7ffa 763f
00000050: 89c9 1340 28ae 0abf fa8b 6e3f d0a9 103f
00000060: 7142 1abf df0b 1e3f 98ba 22bf a077 123f
00000070: 780e 473e c72f af3f 6b8b 623f e7f1 4ebf
00000080: ae2b 1bbf df0b ba3f c18c de3f 382c a43f
00000090: 5881 623f fc5f 9c3f 606c 4bbf 3f9e be3f
000000a0: ba3d 793f 300c 81be 37ab afbf 4619 a33f
000000b0: 2dd7 95bf 1a2b 983f 4fcc 2b3f 897b 2cbf
000000c0: 881b 9bbd 64af e13d ccbb e5bd 8a73 573e
000000d0: c8fe 81bd 4984 3fbe d168 8abe a8df 393d
000000e0: 50cd fd3f 2111 f83f 472f 92be a5a1 b3bf
000000f0: a0de 9ebe 4ce9 413f d8a6 663f c091 c73f
-0.09961209 -1.6510499 -0.015087016 -0.30636695 0.12718251 1.4179358 1.533722 -1.8305538
-0.31913382 -0.48672736 0.057497676 0.9358789 0.036579587 0.56419915 0.9604151 0.8638751
0.23470198 -0.22268714 0.71246755 0.96475977 2.3091757 -0.5417199 0.9318234 0.56509113
-0.6025763 0.61736864 -0.6356597 0.57213783 0.19439113 1.3686455 0.88493985 -0.80837864
-0.60613525 1.4534873 1.7386705 1.2825994 0.8847861 1.2216792 -0.7946224 1.4892043
0.9735981 -0.2520461 -1.3724126 1.2742088 -1.1706291 1.1888154 0.67108625 -0.67376
-0.075736105 0.11019781 -0.1121746 0.21040168 -0.06347424 -0.18702807 -0.27033094 0.04537931
1.9828281 1.9380227 -0.28551695 -1.4033705 -0.31029224 0.7574661 0.90098333 1.5591354

l2.bias f4 [8]
00000000: 6d5f 753f ad8f 3ebf 47a1 8bbe 0ca6 b3be
00000010: db5c 9b3e 93ba cf3e b1c1 70be 3574 243f
0.95848733 -0.7443798 -0.27271482 -0.3508762 0.3034428 0.40572032 -0.23511387 0.6423982

l3.weight f4 [14, 8]
00000000: 3eb0 b9bf 5193 fbbf 1c5d 1c3f 882c 22c0
00000010: 0761 81bf 2e70 513f 7310 0dbe 36b9 ad3e
00000020: 25e8 833e 375b 1b3f 4f50 523e 9303 8c3e
00000030: 5edd e0be 6cab 9fbd a2bb 783e 601a acbf
00000040: 3e64 913e c962 31bf 032d b33d 809c 513d
00000050: 28df 28c0 d943 debb 30b7 72bd a774 023f
00000060: 358d 3b3f 4926 74be c623 0ec0 887e d13e
00000070: 7bc9 f03e 197f 483f 102f 83bd f395 a3bf
00000080: e845 b0bf a152 87bf 3357 f4be f277 debf
00000090: 86e8 1f3f 8719 06c0 0bd2 a2be c665 173f
000000a0: ac1f a0be fa78 b93e 2407 f23a d018 e9bd
000000b0: b137 373f f5d3 fcbf 40a1 f13c 0294 febf
000000c0: e6ff 853f 4a7c 8bbe 2936 3f3f 68ee bfbf
000000d0: af32 f9be dd57 c8bf b4c7 90be aed6 d4bd
000000e0: 3261 873f c656 d9be 2b90 1cc0 1ee1 3e3e
000000f0: e968 cabf 9a07 203f 4094 0f3e d4a2 8f3e
00000100: ac16 a0be 587a 83bf de4f 84bf f13b ce3e
00000110: 9520 11bf 928e 1a3c 2ebc 773e 707d ef3e
00000120: ad93 683e b524 073f dce7 79be b601 253d
00000130: fc4a a2bf 489d 153f 1e17 1e3e 59e9 92be
00000140: fb97 66bf 075f 203f cded 59bb 3b2e 0cbf
00000150: 4f84 f5be 1471 36bf 0312 a23e e553 973e
00000160: e83b 88bf d53e e7bf a87c 34c0 a235 eabf
00000170: c9ec 32be 3502 2b3d f56d 91be 9231 7c3f
00000180: fdef 60bf 5a34 733d 4e46 a9be 9544 da3e
00000190: 6fa6 c83e fe74 50bf b282 043e 1d65 05bf
000001a0: 7840 acbf c17b 0cc0 de36 943f 8bfd 1cc0
000001b0: 8ed2 2e3f add5 44bf c8b1 adbe 8ee5 d5bf
-1.450691 -1.9654332 0.61079574 -2.533968 -1.0107735 0.818118 -0.13775806 0.33930367
0.2576305 0.6068606 0.20538448 0.27346477 -0.4391889 -0.07796368 0.24290326 -1.3445549
0.2839679 -0.6929136 0.0874882 0.05117464 -2.6386204 -0.0067829904 -0.059256732 0.5095925
0.7326234 -0.2384273 -2.2209334 0.40916848 0.47028717 0.78318936 -0.06405461 -1.2780136
-1.3771334 -1.0572091 -0.47722778 -1.7380354 0.6246418 -2.095308 -0.31800875 0.5913967
-0.31274164 0.3622511 0.0018465263 -0.11381686 0.71569353 -1.9752184 0.029495835 -1.9888918
1.0468719 -0.27243263 0.74692017 -1.4994631 -0.4867148 -1.5651814 -0.2827736 -0.103925094
1.0576537 -0.42449015 -2.4462993 0.18640563 -1.5813266 0.625116 0.14021397 0.28053916
-0.31267297 -1.0271711 -1.0336874 0.40280107 -0.5669034 0.0094334055 0.24192879 0.4677539
0.22712584 0.52790385 -0.24404854 0.040284835 -1.2679133 0.5844312 0.15438506 -0.28693655
-0.90075654 0.62645 -0.0033253313 -0.5475804 -0.47952506 -0.71266294 0.31654367 0.29556194
-1.0643282 -1.806605 -2.8201084 -1.8297617 -0.17473139 0.04175015 -0.28404203 0.9851314
-0.87866193 0.0593761 -0.3306145 0.4263045 0.3918948 -0.81428516 0.12940481 -0.5210741
-1.3457174 -2.1950533 1.1579244 -2.452975 0.6829003 -0.76888543 -0.339247 -1.671068

l3.bias f4 [14]
00000000: cb90 f03e fd83 36be 7946 24be ac83 74bd
00000010: c341 4d3d 2328 64bd 3a19 233f d2cb d5bc
00000020: d857 02bf a32c 89be f2a2 fabe b762 023d
00000030: b686 80be 91e9 d63e
0.46985468 -0.17823787 -0.16042508 -0.059695885 0.050111543 -0.05570234 0.6371037 -0.026098166
-0.5091529 -0.26791868 -0.48952442 0.031832423 -0.25102776 0.41975072
