data.pth (torch, 8490 bytes, 6 tensors)

l1.weight f4 [8, 117]
00000000: 621b adbe 06be 753d 3c56 ef3c 361a aa3e
00000010: 29ec 17bf 9d85 41be 2685 f43d 9a2c abbd
00000020: c4bb f53e c79f c83e 1e2d bdbe 7a85 cf3e
00000030: 19c1 03bf 49c5 553e 92f1 25be d68c 203f
00000040: 2d06 863e 04cf f5be 2857 093f e41f 003f
00000050: ef0e 16be e1f1 983e 626b 803e 70b6 b0be
00000060: 0603 2f3f 8e0b d63e c6f5 303f d51b 81be
00000070: a2c8 1c3f dcd2 d13e 3816 813e 9cb5 a2be
00000080: 984f 2c3f 9943 56be e888 a4be 508c 3dbe
00000090: a2a7 bb3e 5f97 f53d 71ec e0be 1261 053f
000000a0: 682f 513e f8f9 623f 6fab b4be c8f0 553f
000000b0: 3c9c 4c3f 0210 1d3f 67ad af3e e4d0 ac3e
000000c0: da3b 29bc 6e62 ba3e a66b 8a3e f73f 373e
000000d0: 1c1d 0fbf fe72 503d 865b 28bf 0a45 8ebe
000000e0: deae 74be 58f6 86be 27f3 cdbe 2faf c03e
000000f0: bd5d f2bd 9961 32bf d916 38be be33 833e
00000100: ebe3 82be 2be3 593e 1c37 253e fa02 413e
00000110: bb96 f83e daac e73e 6c84 763e 4485 953e
00000120: 5346 033f 69f0 bebd bfd2 fc3d 0ca6 ac3e
00000130: f73d 77bd fe9b dd3e e4f7 b23d ad65 0d3f
00000140: c0d5 8ebe 16b9 b6bd 5162 4abf fb45 e5be
00000150: 1a95 e83e 168c c4be cb39 17bf f70e b8bc
00000160: 09a3 71be 7f40 083e 12f0 fc3e da4f dc3e
00000170: 5dbd 81be e936 75be d8f7 81be d129 a53e
00000180: 1a10 013f dd06 49bf 7f8e 4c3e 56ae 1fbb
00000190: a648 34bf 8bcf bdbe f080 e13e 75c7 e43e
000001a0: d017 cb3d 366c f6bd 3b6e 093f 3291 a43e
000001b0: 2a7a 3f3e f562 04be 0b23 083e 7695 cf3e
000001c0: c974 e53e 7791 af3e ac44 833e f7e3 d5be
000001d0: be54 54bc 18cd bc3e b6e8 b43e 2eb7 e03e
000001e0: 0404 563e 9dc7 a13e 5ee1 163e e10e 823e
000001f0: ebe3 0b3f 4922 ff3e ac34 fd3d 1665 2f3f
00000200: 07f1 fc3e be69 083f 72f8 643e 93f7 9b3d
00000210: 48ff 46bf 97ab 2d3e 4f50 0b3f 7369 743e
00000220: afbc 093f ba1b 8d3e b4a6 0cbe 390a 3e3e
00000230: 373d ba3e a650 8dbe 8e70 c2be ff18 4abf
00000240: 0ecb e03e ecfc 0abd 37f5 03bf 4db4 0cbf
00000250: 316f fd3e ed32 60bf d9fa c0be bcc6 cc3e
00000260: 537f 1d3f faf4 f4be 3b9e b93e 1651 1b3f
00000270: 1881 c03e 3a27 9c3b ef88 1b3f bd02 053f
00000280: 65d9 2e3f e1ba 233f f12a 11bf be2c 613e
00000290: 9f4a 673e 17f3 df3d d8e4 b8be f7bd 7abe
000002a0: 9dd1 24bf 7abe 4b3f b254 1ebb 2f4d 443f
000002b0: 22eb b73e d95a 183f 9028 cc3e e462 6fbe
000002c0: d82b e4be 679c d03e 1d02 ff3e 3da4 1e3f
000002d0: 7e70 193e 74fb 603f e2db 0dbf 7ae8 b43e
000002e0: a82c 663e 1599 903e 04e3 633e 6652 10be
000002f0: 55a3 d6be f510 503e 6170 b23e a28d 503e
00000300: e5d6 ac3e 6d69 4d3f e02d 55bc c8ad be3e
00000310: c78a abbc 4a25 2f3e a8be 693e 84bf 193f
00000320: 32dd 863d 4264 ac3e cbe7 cb3e 65e5 2e3f
00000330: 4559 023e a0ec b33e 1ae1 4bbf 0e9d 22bf
00000340: 2dbe 8fbd aa24 5c3e 872f 543f 911e e53e
00000350: e64f e1be 61f9 073f f7f7 fc3e c8e0 5d3e
00000360: 5753 323f cb37 7e3f 3e17 e13e 3c75 943d
00000370: 3bbe 813e 3ef5 903e a8dc 6c3e 3c1b 913e
00000380: bd18 a5be e88c 123d 12f4 af3e 148d 80be
00000390: 10d1 da3e 7057 5f3e d61c 883e a3e8 ef3e
000003a0: 5497 b43e 9206 413e 7e07 1d3f 898a 44bc
000003b0: 97b1 39be 072f c1be b679 28bf e615 46be
000003c0: 1193 d43e 3abd a1be e3da 0b3f 8443 d83e
000003d0: ec94 0bbf bb3f 6abe bc9a 413f 849b 10be
000003e0: e34d afbe 42af 7d3e d08b 95be 81a2 2d3f
000003f0: 6fa6 99be ae76 24be 3d33 4c3f 413c 1ebf
-0.33809954 0.059995674 0.029215924 0.33223122 -0.59344727 -0.18898626 0.119394585 -0.083581164
0.47994816 0.391844 -0.36948484 0.40531522 -0.5146652 0.2087604 -0.16205433 0.627149
0.26176587 -0.48009503 0.53648615 0.5004866 -0.14654134 0.2987204 0.25081927 -0.3451419
0.6836399 0.4180569 0.6912502 -0.25216547 0.6124364 0.40981185 0.25212264 -0.31779182
0.6730895 -0.20924224 -0.321357 -0.18510556 0.3665133 0.11991762 -0.4393039 0.5210124
0.2042824 0.8866267 -0.35287043 0.8357053 0.79925895 0.6135255 0.34311983 0.3375312
-0.010329211 0.3640322 0.27035254 0.17895494 -0.5590379 0.050890915 -0.65764654 -0.27787048
-0.23894832 -0.2635982 -0.40224573 0.37633654 -0.118342854 -0.6968017 -0.17977466 0.25625414
-0.25564513 0.21278064 0.16134304 0.18848792 0.48552498 0.45249063 0.24073952 0.29203236
0.5127918 -0.09323198 0.12344884 0.33720434 -0.06036183 0.43283075 0.08738688 0.5523327
-0.27897453 -0.08922021 -0.7905627 -0.44779953 0.45426255 -0.38388127 -0.5907256 -0.022468073
-0.23597349 0.13305853 0.4940191 0.43029672 -0.25339785 -0.23946728 -0.25384402 0.32258466
0.50415194 -0.785261 0.19976233 -0.0024365387 -0.7042335 -0.37072405 0.44043684 0.44683424
0.09916651 -0.12032358 0.53683823 0.32142025 0.18698946 -0.12928374 0.13294618 0.40543717
0.44815663 0.34290668 0.2563833 -0.41775486 -0.012959657 0.36875224 0.35333794 0.43889755
0.2089997 0.31597605 0.14734408 0.25401977 0.5464465 0.49830845 0.12363562 0.6851362
0.4940264 0.5328635 0.223604 0.076155804 -0.7773328 0.16959988 0.54419416 0.2386835
0.53803533 0.27560216 -0.13735467 0.18558587 0.36374828 -0.27600592 -0.37976497 -0.7894439
0.43904918 -0.03393261 -0.51546043 -0.5496262 0.49498895 -0.87577707 -0.37691382 0.39995372
0.61522406 -0.47843152 0.36253533 0.606706 0.3759849 0.0047654184 0.6075582 0.51957303
0.6830047 0.6395703 -0.5670615 0.21989724 0.2258706 0.109350376 -0.36112094 -0.24486528
-0.64382344 0.7958752 -0.002415937 0.7668027 0.3592158 0.5951362 0.39874697 -0.23377568
-0.445647 0.40744326 0.498063 0.6196936 0.14984319 0.87883687 -0.5541364 0.35333616
0.22477973 0.28241792 0.22254568 -0.14093933 -0.41921487 0.20318969 0.34851363 0.20366529
0.33757702 0.8023899 -0.013011426 0.3724196 -0.020940198 0.17104068 0.22826636 0.60057855
0.065851584 0.3367024 0.39825282 0.6831878 0.12729366 0.35141468 -0.7964035 -0.63520896
-0.07018695 0.21498361 0.8288502 0.44749883 -0.4400627 0.53114897 0.49407932 0.21667778
0.69658417 0.99303883 0.43963045 0.07248923 0.25340447 0.28312105 0.23131049 0.2834109
-0.32245436 0.03577891 0.34365898 -0.25107634 0.42737627 0.21810699 0.265845 0.46857175
0.35271704 0.18850163 0.6133956 -0.01199592 -0.18134151 -0.37731192 -0.65810716 -0.19344291
0.41518453 -0.3158968 0.5463087 0.4223901 -0.5452411 -0.22875874 0.7562673 -0.14121825
-0.3423911 0.24773887 -0.2920823 0.67826086 -0.3000979 -0.16060898 0.79765683 -0.6181069

l1.bias f4 [8]
00000000: cf4d 3e3f b10f 883f 8454 5e3f a372 353f
00000010: 5e07 d23e 73a1 443f 0bb0 473f d8fd a33e
0.74337476 1.0629789 0.8684771 0.70878047 0.41021246 0.7680885 0.78002995 0.32029605

l2.weight f4 [8, 8]
00000000: cf5a 943f e5c7 b0bd 5088 f63f 9c91 a73f
00000010: 26f9 0cbf e36c 663e 4331 1fbf b6cf c23f
00000020: 9ecf 693f dacd ac3f 7883 423f 6425 7fbf
00000030: 84f5 3ebf 57e3 d43e 962f cd3f cdcd 2dbe
00000040: fa99 2bbd abac 9f3f f5eb e53d 9d9e 2f3f
00000050: 83c8 913f 0ccb 05bf b2e8 9a3f 0792 c5bf
00000060: e717 c7be 0662 623f 8a8c b93f 02a5 7cbe
00000070: c5a6 363e 0dee f23f 7f1e 20bf 40a3 973e
00000080: 0692 1bbf 0418 383f ff8e 78bf 815e 623f
00000090: 73ae 553f db77 50bf 5376 ad3e 97e8 debf
000000a0: 87f2 b83e 26c4 ae3f 4262 d6bf 9c5a 973f
000000b0: 2738 a6bf 4114 a63f 7ea7 39bf 7b42 97be
000000c0: 6f6e 8d3f e7b7 bbbf 2a42 253f ba81 a53f
000000d0: bed6 aa3f 405a 28bf 2f93 f1be 5c5f 4f3f
000000e0: 6a45 b13f 3ba5 80bf 2b69 54bd 44d6 b33f
000000f0: 8106 cf3f 991e 99bf c960 573f dfd6 413f
1.1590213 -0.08631877 1.9260349 1.3091311 -0.5506767 0.22502474 -0.6218454 1.5219638
0.91332424 1.3500321 0.75981855 -0.9966643 -0.7459338 0.41579697 1.6030147 -0.16973038
-0.04189489 1.2474569 0.11226646 0.686014 1.1389316 -0.5226295 1.2102263 -1.5435189
-0.38885424 0.8843082 1.4496014 -0.2467232 0.17837055 1.8978897 -0.62546533 0.29616737
-0.6076969 0.71911645 -0.97093195 0.8842545 0.83469313 -0.81432885 0.33879337 -1.7414731
0.36122534 1.365361 -1.6748736 1.1824527 -1.2985886 1.2974931 -0.725212 -0.29542908
1.1049327 -1.4665498 0.64554083 1.2930214 1.3346784 -0.6576271 -0.47182605 0.8100488
1.3849308 -1.0050424 -0.05185811 1.4049764 1.617386 -1.1962463 0.8413206 0.7571849

l2.bias f4 [8]
00000000: cc23 2e3e f3b2 6b3f c0c7 513f b3a1 2a3f
00000010: c111 72be 15b0 943e 6c80 f03e 0f45 183e
0.17005843 0.9206993 0.8194542 0.66652983 -0.23639585 0.2904059 0.46972978 0.14870094

l3.weight f4 [14, 8]
00000000: 82e8 10bd 4b5f 84be ae46 91be 129b c5bf
00000010: af6f 0fbf e26d cdbf a78d df3e 2395 5b3f
00000020: 48b9 0c3f 0d30 cdbf fb05 dcbf 452e 91bf
00000030: 8e52 cfbf 1e79 dcbe 34bb 5a3f 3625 103f
00000040: b617 95bf b0b9 153f 6fae 263f a1cf 2cbf
00000050: e4dd 9d3f 957b 8dbe b132 0dbf 3ffa c9bf
00000060: 641e 3fbe 0f2c ee3e 566e 473f 27ac 3a3f
00000070: 3b47 8fbf 35d1 ddbf 3c59 bfbf 01b0 05c0
00000080: bfb3 fe3e 8f74 23bc f111 503e d214 afbd
00000090: 3d8c d4bf a7cf 68bf f0fb ecbd 7471 18be
000000a0: 39ec 493f 349e 053f 3226 fcbf dd0c 043f
000000b0: d044 babe caaf e8bf 8fd3 75bf 2b29 62bf
000000c0: b012 0c3f ad10 52bf e6dc 02c0 60d7 373f
000000d0: 83b8 78bf 47ad b5bf 4d80 0f3f 7053 e73c
000000e0: aaec d8bf e8b0 8bbe 294a 193f ede0 06bf
000000f0: da24 8d3f 4459 97bf 22e8 14be 68fb c73e
00000100: 18d6 b5be a05b 39bf 4c59 be3e fbea 61bd
00000110: 97ea 7f3f 2c14 2b3f f875 82bf 4ff0 98bf
00000120: c91c 6c3e b5fe b0bf f6d1 28bf d3ab fb3d
00000130: debe d8bf cc1a 2f3f 9b07 2ebe 04a3 68bd
00000140: f2e8 d63d 2df5 c4be c42d 1b3e d845 aebf
00000150: 5567 2c3f f96c 953e f856 9abe 5fa1 eb3b
00000160: 86f6 893e c58a 793e 154c 90bf ba17 a43e
00000170: 02ed b8bf ce20 db3e d25d a3bf 4f2a 9ebf
00000180: aa8d 59bf f09d 733f 49d9 fd3e 38fc 8cbf
00000190: abc7 b5bf 5e96 cbbf 9ce6 96bf 627e 093e
000001a0: 7690 06c0 8a4e 123f a9d7 283d 2a78 2e3f
000001b0: c30b b8bf 5e8f 0c3f a749 2fbf 6b5a 9bbf
-0.035377987 -0.25853953 -0.28374237 -1.5437949 -0.5602979 -1.6049159 0.4366276 0.8577444
0.54970217 -1.6030289 -1.7189325 -1.1342245 -1.6197069 -0.43061155 0.854419 0.5630678
-1.1647861 0.5848646 0.65109915 -0.67504317 1.2333341 -0.27633348 -0.55155474 -1.5779494
-0.18663937 0.4651799 0.77902734 0.72918934 -1.1193613 -1.732947 -1.4949107 -2.0888674
0.4974651 -0.00997652 0.20319344 -0.08548893 -1.6605297 -0.9094185 -0.11571491 -0.14887029
0.7887607 0.52194524 -1.9699156 0.5158213 -0.36380625 -1.8178647 -0.9602594 -0.8834407
0.54716015 -0.82056695 -2.0447326 0.7181301 -0.9715654 -1.4193505 0.56055146 0.028238028
-1.6947224 -0.27283406 0.59878784 -0.5268696 1.1026871 -1.1824117 -0.14541677 0.39058995
-0.35514903 -0.72405434 0.37177503 -0.055155735 0.9996733 0.66827655 -1.0192251 -1.1948336
0.23057856 -1.382773 -0.65945375 0.12288632 -1.6933248 0.68400264 -0.16995089 -0.05679609
0.104936495 -0.38468304 0.15154177 -1.3615065 0.6734517 0.29184702 -0.30144477 0.007190868
0.26945895 0.24369343 -1.1273218 0.32049352 -1.4447329 0.42798465 -1.2763007 -1.2356662
-0.8498179 0.9516287 0.49579838 -1.1014471 -1.4201559 -1.5905263 -1.1789126 0.13427117
-2.1025672 0.5715109 0.041221295 0.68152106 -1.4378589 0.5490626 -0.6847176 -1.2136968

l3.bias f4 [14]
00000000: e5cf bc3c 25d7 6bbe b634 9cbe 87dc fb3d
00000010: 9815 863e 557c 62be 4d7f a8be 5dc6 943e
00000020: 4e33 a93d 85b4 37bc b4a8 1fbf 2161 c83e
00000030: 4606 d83d a7b7 39be
0.02304835 -0.2303129 -0.30508965 0.12297922 0.2618835 -0.22117741 -0.32909623 0.2905759
0.08261739 -0.011212473 -0.62366796 0.39136603 0.105480716 -0.18136464
