data.pth (torch, 5418 bytes, 6 tensors)

l1.weight f4 [8, 54]
-0.23269247 0.38664716 0.3556644 0.2121364 0.6526127 -0.5734168 0.2999278 0.29867858
0.5981585 0.32273796 0.3657409 0.5887689 0.8317553 0.72229004 0.35694808 0.50851035
0.37522826 -0.55756694 0.5808286 0.39782652 -0.22876707 0.4745623 0.41253 0.2965175
0.48739317 0.28409496 0.7587398 0.21814376 0.529242 -0.10675246 -0.38891324 0.7264253
-0.07832774 0.52200526 0.63825536 0.3922765 0.4946294 0.46287608 0.3356887 0.50516564
-0.3156891 0.57254744 0.6191653 0.3848316 0.5833614 0.63831717 -0.6706774 -0.15694544
0.57442296 0.88172454 0.557538 0.5262089 0.3012215 0.25983602 -0.20990975 -0.30069065
0.6285785 0.2875666 0.5343291 -0.517748 0.32970402 0.46160617 0.43915793 0.3280306
0.3881273 0.8278904 0.7567214 0.73461944 -0.037031326 0.5078936 0.37635177 -0.51767343
0.49462602 0.6402539 -0.08623354 0.40193522 0.5973689 0.5416475 0.6377492 0.18537702
0.46317813 -0.3343464 0.18617514 -0.4360118 -0.2810006 0.8727874 0.033570573 0.473078
-0.044848096 0.6433895 0.33172926 0.49527764 0.5449279 0.3139102 -0.540226 0.26698726
0.52036524 -0.046846148 0.69711107 -0.12929979 -0.5211562 -0.19500324 0.43619955 0.54201484
0.4869604 0.3761495 0.5501325 0.30360693 0.015495412 0.3192612 -0.3750617 0.40607467
0.2652773 -0.67703515 -0.20600684 -0.21029131 -0.48896953 -0.31601712 0.33550912 0.37719163
-0.24913843 0.13283388 0.07183901 0.29518637 0.54081106 -0.677094 -0.15487103 0.64121294
0.18753432 0.7060303 0.6805481 0.5826699 0.08136276 0.3573542 -0.3682157 0.21604809
-0.31448922 0.30938813 -0.42966163 0.2840816 0.30159676 -0.19554347 0.2877839 0.5526581
-0.1068967 -0.47074527 -0.22531235 -0.23465033 -0.38973558 -0.097300984 0.23357254 0.14519744
-0.012590014 0.19630124 -0.021753103 -0.02396179 0.326624 -0.47391483 0.48690003 -0.04715593
-0.09498027 0.14210823 0.73353946 0.4263749 0.5422143 0.02432104 0.53288627 0.3085772
0.596241 0.6217788 0.56948364 0.47772038 -0.15348884 -0.36760736 0.060886763 -0.35716468
-0.031142786 -0.33573055 -0.053358745 0.25599363 -0.3992745 -0.45895138 0.41693354 -0.5039956
-0.34243688 -0.12659045 0.3828202 0.11027946 -0.39671028 -0.07975757 -0.028216558 -0.33527812
0.07979479 -0.39353597 0.40398765 0.69812346 0.11733677 -0.29589957 -0.22811458 0.44124788
0.43107525 0.3431219 0.09622828 -0.6524569 -0.37293512 0.13194972 0.3122113 0.116837166
0.8740267 0.56012386 -0.0020511053 -0.62394124 -0.3783294 -0.39152083 0.5062879 0.5210539
-0.37579784 0.7714174 -0.44914442 -0.34308505 0.006509298 0.7427749 0.023811456 -0.23582998
-0.31859678 -0.033910964 -0.2625379 -0.34957218 0.7171773 0.006113944 0.49053028 -0.35680217
-0.23845834 0.70491904 0.7426173 -0.25172457 -0.27328607 -0.34984076 -0.2890425 -0.3591077
-0.13896945 -0.25859126 0.9615208 0.56560683 0.73831487 0.50943637 0.5877759 -0.15477827
-0.29067126 -0.40863332 0.73384374 -0.3550297 0.7683721 -0.36254787 0.018309407 0.01238681
00000000: ef46 6ebe 9ef6 c53e a519 b63e 493a 593e
00000010: a011 273f 72cb 12bf 2390 993e 66ec 983e
00000020: ea20 193f e93d a53e 6442 bb3e 8fb9 163f
00000030: eaed 543f 00e8 383f e6c1 b63e bc2d 023f
00000040: eb1d c03e b5bc 0ebf 2fb1 143f ebaf cb3e
00000050: ea41 6abe d4f9 f23e 2237 d33e 24d1 973e
00000060: 998b f93e e574 913e c63c 423f 1461 5f3e
00000070: 677c 073f 09a1 dabd a31f c7be 02f7 393f
00000080: 4b6a a0bd 23a2 053f b464 233f 77d8 c83e
00000090: 1140 fd3e 18fe ec3e 64df ab3e 8952 013f
000000a0: 00a2 a1be 7892 123f 9e81 1e3f a608 c53e
000000b0: 2c57 153f c168 233f 84b1 2bbf 4eb6 20be
000000c0: 620d 133f b3b8 613f cfba 0e3f a0b5 063f
000000d0: b439 9a3e 3a09 853e 95f2 56be 20f4 99be
000000e0: 85ea 203f ee3b 933e cbc9 083f 228b 04bf
000000f0: f7ce a83e a557 ec3e 4fd9 e03e a0f3 a73e
00000100: 9fb8 c63e a0f0 533f 7eb8 413f 0510 3c3f
00000110: 29ae 17bd 5105 023f 2eb1 c03e 3f86 04bf
00000120: 9f3f fd3e aee7 233f 369b b0bd 74ca cd3e
00000130: 2bed 183f 69a9 0a3f 8843 233f 79d3 3d3e
00000140: af25 ed3e 742f abbe b2a4 3e3e f03c dfbe
00000150: 50df 8fbe ff6e 5f3f 4c81 093d 4837 f23e
00000160: a3b2 37bd 2db5 243f 6bd8 a93e 0895 fd3e
00000170: 6580 0b3f d6b8 a03e 404c 0abf 8eb2 883e
00000180: a836 053f bfe1 3fbd df75 323f 2a67 04be
00000190: 7e6a 05bf eeae 47be 8c55 df3e 7cc1 0a3f
000001a0: e052 f93e ab96 c03e 7cd5 0c3f 5e72 9b3e
000001b0: 78e0 7d3c 3476 a33e 1608 c0be 05e9 cf3e
000001c0: 6dd2 873e 2d52 2dbf 75f3 52be 9b56 57be
000001d0: 375a fabe ffcc a1be dac7 ab3e 431f c13e
000001e0: 251e 7fbe 9b05 083e 5520 933d ab22 973e
000001f0: 9872 0a3f 0856 2dbf 8396 1ebe 8826 243f
00000200: ff08 403e 67be 343f 6638 2e3f db29 153f
00000210: 85a1 a63d 21f7 b63e c586 bcbe b63b 5d3e
00000220: bb04 a1be 1f68 9e3e 9cfc dbbe 2573 913e
00000230: e46a 9a3e 8c3c 48be 6958 933e 007b 0d3f
00000240: a8ec dabd 8605 f1be 48b8 66be 2d48 70be
00000250: 6c8b c7be bd45 c7bd a42d 6f3e a3ae 143e
00000260: 5946 4ebc 3103 493e 9033 b2bc 844b c4bc
00000270: 433b a73e f7a4 f2be f64a f93e 9426 41bd
00000280: 0485 c2bd d284 113e 3ec9 3b3f d04d da3e
00000290: 8ece 0a3f eb3c c73c 3c6b 083f d5fd 9d3e
000002a0: 40a3 183f e52c 1f3f aec9 113f c497 f43e
000002b0: 2e2c 1dbe 0837 bcbe 6664 793d 4ade b6be
000002c0: 281f ffbc e0e4 abbe b38e 5abd 9911 833e
000002d0: b56d ccbe adfb eabe 5078 d53e db05 01bf
000002e0: e353 afbe eda0 01be 0201 c43e 33da e13d
000002f0: 9c1d cbbe f057 a3bd 6926 e7bc 93a9 abbe
00000300: 736b a33d 8c7d c9be 78d7 ce3e 38b8 323f
00000310: 434e f03d 2680 97be de96 69be 3eeb e13e
00000320: e5b5 dc3e acad af3e 5513 c53d 6a07 27bf
00000330: 5af1 bebe d41d 073e 29da 9f3e 5348 ef3d
00000340: 37c0 5f3f 4764 0f3f d66b 06bb 9dba 1fbf
00000350: 64b4 c1be 6b75 c8be 159c 013f ca63 053f
00000360: 9368 c0be 9c7b 453f 42f6 e5be d8a8 afbe
00000370: f34b d53b 7f26 3e3f 3e10 c33c 6a7d 71be
00000380: 1e1f a3be 39e6 0abd 5e6b 86be 20fb b2be
00000390: ee98 373f 7b57 c83b c926 fb3e c6ae b6be
000003a0: 6c2e 74be 9375 343f 2b1c 3e3f 0be2 80be
000003b0: 27ec 8bbe 541e b3be 61fd 93be f7dc b7be
000003c0: 024e 0ebe 1366 84be 3a26 763f 9ccb 103f
000003d0: 3402 3d3f 6c6a 023f 7b78 163f 327e 1ebe
000003e0: ddd2 94be 6338 d1be 2fdd 3b3f 74c6 b5be
000003f0: 09b4 443f e09f b9be 9cfd 953c 0cf2 4a3c

l1.bias f4 [8]
0.6184385 0.5177339 0.676987 0.9385752 0.8665368 -0.17084752 0.8283387 0.93712723
00000000: fc51 1e3f 358a 043f 054f 2d3f 7746 703f
00000010: 5bd5 5d3f a7f2 2ebe 010e 543f 92e7 6f3f

l2.weight f4 [8, 8]
-0.013161868 -0.07539359 0.21981499 -0.31785843 -0.24076489 -0.11788179 -0.31881338 -0.17071307
-0.29504585 -0.33875293 0.34175554 0.31085047 0.05443999 -0.020381864 -0.35101286 -0.1609111
-1.2970532 -1.0272002 -0.9069476 1.2008413 -0.0077369455 -0.28964037 0.70361143 1.0849482
-0.14255264 -0.3569403 0.6865684 1.0643175 0.18430825 -0.3211357 1.1679653 1.3376985
0.7419632 0.9526838 0.14835218 1.26288 -1.2380921 0.09193577 0.75507516 -0.22498769
1.6948936 0.9264458 -0.455694 0.76199245 1.3853476 -0.063143514 -0.69027203 -0.27539426
0.21239422 0.5196202 1.8758272 0.1712386 -0.50593364 0.2807484 0.83612186 0.21330416
0.43817392 0.683833 1.006549 -0.85425985 -0.7036093 -0.21169586 0.32654375 0.3113135
00000000: e0a4 57bc f467 9abd 2e17 613e 57be a2be
00000010: 128b 76be 026c f1bd 823b a3be 68cf 2ebe
00000020: 4010 97be 0671 adbe 95fa ae3e cb27 9f3e
00000030: 78fc 5e3d def7 a6bc f5b7 b3be e1c5 24be
00000040: d705 a6bf 4c7b 83bf b82d 68bf 2bb5 993f
00000050: 3486 fdbb be4b 94be e11f 343f 95df 8a3f
00000060: 52f9 11be e1c0 b6be f2c2 2f3f 8e3b 883f
00000070: 4dbb 3c3e e66b a4be e37f 953f b439 ab3f
00000080: 4df1 3d3f 16e3 733f a2e9 173e 0da6 a13f
00000090: cd79 9ebf d248 bc3d 9b4c 413f 2c63 66be
000000a0: 46f2 d83f 8d2b 6d3f b950 e9be f011 433f
000000b0: 1253 b13f 6351 81bd abb5 30bf 7a00 8dbe
000000c0: df7d 593e d405 053f 1b1b f03f 2c59 2f3e
000000d0: de84 01bf 41be 8f3e 150c 563f 686c 5a3e
000000e0: 5558 e03e ae0f 2f3f 99d6 803f c6b0 5abf
000000f0: bd1f 34bf cdc6 58be be30 a73e 7c64 9f3e

l2.bias f4 [8]
-0.2944807 -0.075816035 0.5556264 0.41326234 0.3048555 0.8431935 -0.32286006 -0.17942216
00000000: 2dc6 96be 7045 9bbd 883d 0e3f 1f97 d33e
00000010: 0516 9c3e 87db 573f ea4d a5be 71ba 37be

l3.weight f4 [7, 8]
0.28760043 0.085784 -0.532933 -1.6460366 0.18402623 -0.0036658614 0.2801204 0.6307652
0.05514607 -0.07285861 -1.0187932 -0.09401151 -1.0481542 0.35085353 -0.16595136 -0.79124075
0.15333161 -0.1302976 0.77904207 0.42580095 -0.21104419 -0.41860223 -1.8832145 -0.7764983
0.29511318 0.0032887987 -1.0233858 0.41359213 0.26169348 -1.0813886 0.71492386 0.4215392
0.016301066 -0.049470685 -0.7264424 -1.7777215 -0.552394 0.8510014 -1.7955787 -0.7699103
0.3206372 -0.2652621 -0.56860834 -0.9223009 0.68421316 0.25343913 -0.24468772 -1.235763
-0.036823243 -0.31531665 0.7434599 0.08827588 0.41944587 -1.6001666 0.800015 -1.5856147
00000000: 5d40 933e 86af af3d 4c6e 08bf 54b1 d2bf
00000010: 5f71 3c3e f33e 70bb f16b 8f3e d479 213f
00000020: d8e0 613d e536 95bd d167 82bf 1b89 c0bd
00000030: eb29 86bf 13a3 b33e 27ef 29be c18e 4abf
00000040: f602 1d3e bc6c 05be 4d6f 473f 9502 da3e
00000050: f81b 58be 0853 d6be 2c0d f1bf 98c8 46bf
00000060: 1319 973e e388 573b 4efe 82bf 59c2 d33e
00000070: b0fc 853e f16a 8abf 4005 373f fcd3 d73e
00000080: d089 853c c6a1 4abd 21f8 39bf 618c e3bf
00000090: b169 0dbf 3adb 593f 86d5 e5bf d718 45bf
000000a0: 8f2a a43e 6fd0 87be 5190 11bf e91b 6cbf
000000b0: 9828 2f3f c6c2 813e 6b8f 7abe 7b2d 9ebf
000000c0: f8d3 16bd 2f71 a1be 6353 3e3f fcc9 b43d
000000d0: 9cc1 d63e 42d2 ccbf c8cd 4c3f 6cf5 cabf

l3.bias f4 [7]
-0.08942549 0.41642642 0.28495136 0.03226708 0.067604765 -0.35918203 -0.6384585
00000000: b624 b7bd d835 d53e 25e5 913e 7c2a 043d
00000010: 5e74 8a3d b5e6 b7be 0472 23bf
